…
:"https://localhost:8080/"},"executionInfo":{"status":"ok","timestamp":1608017464261,"user_tz":-540,"elapsed":472,"user":{"displayName":"최종찬","photoUrl":"","userId":"12659814370838060539"}},"outputId":"321ddbb3-581f-4e9d-f129-bd4c0f752fc2"},"source":["model.summary()"],"execution_count":27,"outputs":[{"output_type":"stream","text":["Model: \"sequential\"\n","_________________________________________________________________\n","Layer (type)                 Output Shape              Param #   \n","=================================================================\n","conv2d (Conv2D)              (None, 222, 222, 64)      1792      \n","_________________________________________________________________\n","max_pooling2d (MaxPooling2D) (None, 111, 111, 64)      0         \n","_________________________________________________________________\n","conv2d_1 (Conv2D)            (None, 109, 109, 64)      36928     \n","_________________________________________________________________\n","max_pooling2d_1 (MaxPooling2 (None, 54, 54, 64)        0         \n","_________________________________________________________________\n","conv2d_2 (Conv2D)            (None, 52, 52, 128)       73856     \n","_________________________________________________________________\n","max_pooling2d_2 (MaxPooling2 (None, 26, 26, 128)       0         \n","_________________________________________________________________\n","conv2d_3 (Conv2D)            (None, 24, 24, 128)       147584    \n","_________________________________________________________________\n","max_pooling2d_3 (MaxPooling2 (None, 12, 12, 128)       0         \n","_________________________________________________________________\n","conv2d_4 (Conv2D)            (None, 10, 10, 256)       295168    \n","_________________________________________________________________\n","max_pooling2d_4 (MaxPooling2 (None, 5, 5, 256)         0         \n","_________________________________________________________________\n","flatten (Flatten)            (None, 6400)              0         \n","_________________________________________________________________\n","dropout (Dropout)            (None, 6400)              0         \n","_________________________________________________________________\n","dense (Dense)                (None, 512)               3277312   \n","_________________________________________________________________\n","dense_1 (Dense)              (None, 128)               65664     \n","_________________________________________________________________\n","dense_2 (Dense)              (None, 2)                 258       \n","=================================================================\n","Total params: 3,898,562\n","Trainable params: 3,898,562\n","Non-trainable params: 0\n","_________________________________________________________________\n"],"name":"stdout"}]},{"cell_type":"markdown","metadata":{"id":"wnmQV-fDnim8"},"source":["## 컴파일 (compile)"]},{"cell_type":"markdown","metadata":{"id":"pHQ1abHXK8e
…
