…
https://localhost:8080/"},"executionInfo":{"status":"ok","timestamp":1608533057475,"user_tz":-540,"elapsed":427,"user":{"displayName":"최종찬","photoUrl":"","userId":"12659814370838060539"}},"outputId":"0469f9c5-164b-4ca3-ad65-300739c882b8"},"source":["model.summary()"],"execution_count":56,"outputs":[{"output_type":"stream","text":["Model: \"sequential_9\"\n","_________________________________________________________________\n","Layer (type)                 Output Shape              Param #   \n","=================================================================\n","conv1d_16 (Conv1D)           (None, 26, 512)           43520     \n","_________________________________________________________________\n","conv1d_17 (Conv1D)           (None, 24, 256)           393472    \n","_________________________________________________________________\n","conv1d_18 (Conv1D)           (None, 22, 128)           98432     \n","_________________________________________________________________\n","conv1d_19 (Conv1D)           (None, 20, 128)           49280     \n","_________________________________________________________________\n","flatten_10 (Flatten)         (None, 2560)              0         \n","_________________________________________________________________\n","dropout_6 (Dropout)          (None, 2560)              0         \n","_________________________________________________________________\n","dense_37 (Dense)             (None, 128)               327808    \n","_________________________________________________________________\n","dense_38 (Dense)             (None, 64)                8256      \n","_________________________________________________________________\n","dense_39 (Dense)             (None, 10)                650       \n","=================================================================\n","Total params: 921,418\n","Trainable params: 921,418\n","Non-trainable params: 0\n","_________________________________________________________________\n"],"name":"stdout"}]},{"cell_type":"markdown","metadata":{"id":"wnmQV-fDnim8"},"source":["## 컴파일 (compile)"]},{"cell_type":"markdown","metadata":{"id":"pHQ1abHXK8e9"},
…
