…
tps://localhost:8080/"},"executionInfo":{"status":"ok","timestamp":1608551199970,"user_tz":-540,"elapsed":405,"user":{"displayName":"최종찬","photoUrl":"","userId":"12659814370838060539"}},"outputId":"2747997f-fc6e-405b-e406-3aa4cef41767"},"source":["model.summary()"],"execution_count":117,"outputs":[{"output_type":"stream","text":["Model: \"sequential_28\"\n","_________________________________________________________________\n","Layer (type)                 Output Shape              Param #   \n","=================================================================\n","conv2d_147 (Conv2D)          (None, 148, 148, 64)      1792      \n","_________________________________________________________________\n","max_pooling2d_146 (MaxPoolin (None, 74, 74, 64)        0         \n","_________________________________________________________________\n","conv2d_148 (Conv2D)          (None, 72, 72, 64)        36928     \n","_________________________________________________________________\n","max_pooling2d_147 (MaxPoolin (None, 36, 36, 64)        0         \n","_________________________________________________________________\n","conv2d_149 (Conv2D)          (None, 34, 34, 128)       73856     \n","_________________________________________________________________\n","max_pooling2d_148 (MaxPoolin (None, 17, 17, 128)       0         \n","_________________________________________________________________\n","conv2d_150 (Conv2D)          (None, 15, 15, 128)       147584    \n","_________________________________________________________________\n","max_pooling2d_149 (MaxPoolin (None, 7, 7, 128)         0         \n","_________________________________________________________________\n","flatten_27 (Flatten)         (None, 6272)              0         \n","_________________________________________________________________\n","dropout_28 (Dropout)         (None, 6272)              0         \n","_________________________________________________________________\n","dense_72 (Dense)             (None, 128)               802944    \n","_________________________________________________________________\n","dense_73 (Dense)             (None, 512)               66048     \n","_________________________________________________________________\n","dense_74 (Dense)             (None, 3)                 1539      \n","=================================================================\n","Total params: 1,130,691\n","Trainable params: 1,130,691\n","Non-trainable params: 0\n","_________________________________________________________________\n"],"name":"stdout"}]},{"cell_type":"markdown","metadata":{"id":"4NhjbLsU1Ll0"},"source":["## STEP 4. 컴파일 (compile)"]},{"cell_type":"markdown","metadata":{"id":"cdjO
…
