…
https://localhost:8080/"},"executionInfo":{"status":"ok","timestamp":1608539800513,"user_tz":-540,"elapsed":18547,"user":{"displayName":"최종찬","photoUrl":"","userId":"12659814370838060539"}},"outputId":"d31bdb14-b5f5-4c59-e0c9-5d771fcd7c10"},"source":["model.summary()"],"execution_count":10,"outputs":[{"output_type":"stream","text":["Model: \"sequential\"\n","_________________________________________________________________\n","Layer (type)                 Output Shape              Param #   \n","=================================================================\n","conv2d (Conv2D)              (None, 298, 298, 16)      448       \n","_________________________________________________________________\n","max_pooling2d (MaxPooling2D) (None, 149, 149, 16)      0         \n","_________________________________________________________________\n","conv2d_1 (Conv2D)            (None, 147, 147, 32)      4640      \n","_________________________________________________________________\n","max_pooling2d_1 (MaxPooling2 (None, 73, 73, 32)        0         \n","_________________________________________________________________\n","conv2d_2 (Conv2D)            (None, 71, 71, 64)        18496     \n","_________________________________________________________________\n","max_pooling2d_2 (MaxPooling2 (None, 35, 35, 64)        0         \n","_________________________________________________________________\n","conv2d_3 (Conv2D)            (None, 33, 33, 64)        36928     \n","_________________________________________________________________\n","max_pooling2d_3 (MaxPooling2 (None, 16, 16, 64)        0         \n","_________________________________________________________________\n","conv2d_4 (Conv2D)            (None, 14, 14, 128)       73856     \n","_________________________________________________________________\n","max_pooling2d_4 (MaxPooling2 (None, 7, 7, 128)         0         \n","_________________________________________________________________\n","flatten (Flatten)            (None, 6272)              0         \n","_________________________________________________________________\n","dropout (Dropout)            (None, 6272)              0         \n","_________________________________________________________________\n","dense (Dense)                (None, 128)               802944    \n","_________________________________________________________________\n","dense_1 (Dense)              (None, 32)                4128      \n","_________________________________________________________________\n","dense_2 (Dense)              (None, 2)                 66        \n","=================================================================\n","Total params: 941,506\n","Trainable params: 941,506\n","Non-trainable params: 0\n","_________________________________________________________________\n"],"name":"stdout"}]},{"cell_type":"markdown","metadata":{"id":"4NhjbLsU1Ll0"},"source":["## STEP 4. 컴파일 (compile)"]},{"cell_type":"markdown","metadata":{"id":"cdjO-S
…
