…
https://localhost:8080/"},"executionInfo":{"status":"ok","timestamp":1608554332017,"user_tz":-540,"elapsed":778,"user":{"displayName":"최종찬","photoUrl":"","userId":"12659814370838060539"}},"outputId":"c8ec6e14-f21e-4898-d9df-f5c9c99f86e4"},"source":["model.summary()"],"execution_count":28,"outputs":[{"output_type":"stream","text":["Model: \"sequential_3\"\n","_________________________________________________________________\n","Layer (type)                 Output Shape              Param #   \n","=================================================================\n","conv2d_17 (Conv2D)           (None, 222, 222, 64)      1792      \n","_________________________________________________________________\n","max_pooling2d_15 (MaxPooling (None, 111, 111, 64)      0         \n","_________________________________________________________________\n","conv2d_18 (Conv2D)           (None, 109, 109, 128)     73856     \n","_________________________________________________________________\n","max_pooling2d_16 (MaxPooling (None, 54, 54, 128)       0         \n","_________________________________________________________________\n","conv2d_19 (Conv2D)           (None, 52, 52, 128)       147584    \n","_________________________________________________________________\n","max_pooling2d_17 (MaxPooling (None, 26, 26, 128)       0         \n","_________________________________________________________________\n","conv2d_20 (Conv2D)           (None, 24, 24, 256)       295168    \n","_________________________________________________________________\n","max_pooling2d_18 (MaxPooling (None, 12, 12, 256)       0         \n","_________________________________________________________________\n","conv2d_21 (Conv2D)           (None, 10, 10, 256)       590080    \n","_________________________________________________________________\n","max_pooling2d_19 (MaxPooling (None, 5, 5, 256)         0         \n","_________________________________________________________________\n","flatten_3 (Flatten)          (None, 6400)              0         \n","_________________________________________________________________\n","dropout_3 (Dropout)          (None, 6400)              0         \n","_________________________________________________________________\n","dense_9 (Dense)              (None, 512)               3277312   \n","_________________________________________________________________\n","dense_10 (Dense)             (None, 128)               65664     \n","_________________________________________________________________\n","dense_11 (Dense)             (None, 2)                 258       \n","=================================================================\n","Total params: 4,451,714\n","Trainable params: 4,451,714\n","Non-trainable params: 0\n","_________________________________________________________________\n"],"name":"stdout"}]},{"cell_type":"markdown","metadata":{"id":"wnmQV-fDnim8"},"source":["## 컴파일 (compile)"]},{"cell_type":"markdown","metadata":{"id":"pHQ1abHXK8e
…
